…
equential", "num_layers": 5, "layers": [{"_type": "Linear", "_type_fq": "torch.nn.modules.linear.Linear", "in_features": 23, "out_features": 256, "bias": true}, {"_type": "ReLU", "_type_fq": "torch.nn.modules.activation.ReLU", "repr": "ReLU()"}, {"_type": "Linear", "_type_fq": "torch.nn.modules.linear.Linear", "in_features": 256, "out_features": 256, "bias": true}, {"_type": "ReLU", "_type_fq": "torch.nn.modules.activation.ReLU", "repr": "ReLU()"}, {"_type": "Linear", "_type_fq": "torch.nn.modules.linear.Linear", "in_features": 256, "out_features": 1, "bias": true}], "repr": "Sequential(\n  (0): Linear(in_features=23, out_features=256, bias=True)\n  (1): ReLU()\n  (2): Linear(in_features=256, out_features=256, bias=True)\n  (3): ReLU()\n  (4): Linear(in_features=256, out_features=1, bias=True)\n)"}}}, "policy_parameter_count": 217870, "policy_repr": "SACPolicy(\n  (feature_extractor): IdentityExtractor()\n  (actor): Actor(\n    (feature_extractor): IdentityExtractor()\n    (network): Sequential(\n      (0): Linear(in_features=17, out_features=256, bias=True)\n      (1): ReLU()\n      (2): Linear(in_features=256, out_features=256, bias=True)\n      (3): ReLU()\n    )\n    (_action_selector): PredictedStdActionSelector(\n      (action_net): Linear(in_features=256, out_features=6, bias=True)\n      (log_std_net): Linear(in_features=256, out_features=6, bias=True)\n    )\n  )\n  (critic): QCritic(\n    (feature_extractor): IdentityExtractor()\n    (q_networks): ModuleList(\n      (0-1): 2 x Sequential(\n        (0): Linear(in_features=23, out_features=256, bias=True)\n        (1): ReLU()\n        (2): Linear(in_features=256, out_features=256, bias=True)\n        (3): ReLU()\n        (4): Linear(in_features=256, out_features=1, bias=True)\n      )\n    )\n  )\n  (target_critic): QCritic(\n    (feature_extractor): IdentityExtractor()\n    (q_networks): ModuleList(\n      (0-1): 2 x Sequential(\n        (0): Linear(in_features=23, out_features=256, bias=True)\n        (1): ReLU()\n        (2): Linear(in_features=256, out_features=256, bias=True)\n        (3): ReLU()\n        (4): Linear(in_features=256, out_features=1, bias=True)\n      )\n    )\n  )\n  (target_shared_feature_extractor): IdentityExtractor()\n)", "buffer": {"_type": "RingWithReservoirReplayBuffer", "_type_fq": "src.reinforcement_learning.core.buffers.replay.ring_with_reservoir_replay_buffer.RingWithReservoirReplayBuffer", "step_size": 300000, "num_envs": 1, "total_size": 300000, "reward_scale": 1.0000e+00, "torch_
…
