{"experiment_id": "2024-09-26_20-44-34_340800~pUXvUv", "experiment_tags": ["SACDebug", "HalfCheetah-v4"], "start_time": "2024-09-26 20:44:34.340800", "end_time": "2024-09-27 01:24:37.913312", "end_exception": null, "model_db_reference": null, "hyper_parameters": {"_type": "SACDebug", "_type_fq": "__main__.SACDebug", "env": "<RescaleAction<TransformRewardWrapper<AsyncVectorEnv instance>>>", "num_envs": 16, "policy": "SACPolicy(\n  (actor): DebugActor(\n    (feature_extractor): IdentityExtractor()\n    (network): Sequential(\n      (0): Linear(in_features=17, out_features=256, bias=True)\n      (1): ReLU()\n      (2): Linear(in_features=256, out_features=256, bias=True)\n      (3): ReLU()\n    )\n    (action_selector): PredictedStdActionSelector(\n      (action_net): Linear(in_features=256, out_features=6, bias=True)\n      (log_std_net): Linear(in_features=256, out_features=6, bias=True)\n    )\n  )\n  (critic): ContinuousCritic(\n    (features_extractor): FlattenExtractor(\n      (flatten): Flatten(start_dim=1, end_dim=-1)\n    )\n    (qf0): Sequential(\n      (0): Linear(in_features=23, out_features=256, bias=True)\n      (1): ReLU()\n      (2): Linear(in_features=256, out_features=256, bias=True)\n      (3): ReLU()\n      (4): Linear(in_features=256, out_features=1, bias=True)\n    )\n    (qf1): Sequential(\n      (0): Linear(in_features=23, out_features=256, bias=True)\n      (1): ReLU()\n      (2): Linear(in_features=256, out_features=256, bias=True)\n      (3): ReLU()\n      (4): Linear(in_features=256, out_features=1, bias=True)\n    )\n  )\n  (critic_target): ContinuousCritic(\n    (features_extractor): FlattenExtractor(\n      (flatten): Flatten(start_dim=1, end_dim=-1)\n    )\n    (qf0): Sequential(\n      (0): Linear(in_features=23, out_features=256, bias=True)\n      (1): ReLU()\n      (2): Linear(in_features=256, out_features=256, bias=True)\n      (3): ReLU()\n      (4): Linear(in_features=256, out_features=1, bias=True)\n    )\n    (qf1): Sequential(\n      (0): Linear(in_features=23, out_features=256, bias=True)\n      (1): ReLU()\n      (2): Linear(in_features=256, out_features=256, bias=True)\n      (3): ReLU()\n      (4): Linear(in_features=256, out_features=1, bias=True)\n    )\n  )\n)", "policy_parameter_count": 362256, "policy_repr": "SACPolicy(\n  (actor): DebugActor(\n    (feature_extractor): IdentityExtractor()\n    (network): Sequential(\n      (0): Linear(in_features=17, out_features=256, bias=True)\n      (1): ReLU()\n      (2): Linear(in_features=256, out_features=256, bias=True)\n      (3): ReLU()\n    )\n    (action_selector): PredictedStdActionSelector(\n      (action_net): Linear(in_features=256, out_features=6, bias=True)\n      (log_std_net): Linear(in_features=256, out_features=6, bias=True)\n    )\n  )\n  (critic): ContinuousCritic(\n    (features_extractor): FlattenExtractor(\n      (flatten): Flatten(start_dim=1, end_dim=-1)\n    )\n    (qf0): Sequential(\n      (0): Linear(in_features=23, out_features=256, bias=True)\n      (1): ReLU()\n      (2): Linear(in_features=256, out_features=256, bias=True)\n      (3): ReLU()\n      (4): Linear(in_features=256, out_features=1, bias=True)\n    )\n    (qf1): Sequential(\n      (0): Linear(in_features=23, out_features=256, bias=True)\n      (1): ReLU()\n      (2): Linear(in_features=256, out_features=256, bias=True)\n      (3): ReLU()\n      (4): Linear(in_features=256, out_features=1, bias=True)\n    )\n  )\n  (critic_target): ContinuousCritic(\n    (features_extractor): FlattenExtractor(\n      (flatten): Flatten(start_dim=1, end_dim=-1)\n    )\n    (qf0): Sequential(\n      (0): Linear(in_features=23, out_features=256, bias=True)\n      (1): ReLU()\n      (2): Linear(in_features=256, out_features=256, bias=True)\n      (3): ReLU()\n      (4): Linear(in_features=256, out_features=1, bias=True)\n    )\n    (qf1): Sequential(\n      (0): Linear(in_features=23, out_features=256, bias=True)\n      (1): ReLU()\n      (2): Linear(in_features=256, out_features=256, bias=True)\n      (3): ReLU()\n      (4): Linear(in_features=256, out_features=1, bias=True)\n    )\n  )\n)", "buffer": {"_type": "ReplayBuffer", "_type_fq": "src.reinforcement_learning.core.buffers.replay.replay_buffer.ReplayBuffer", "buffer_size": 50000, "num_envs": 16, "total_buffer_size": 800000, "torch_device": "cuda:0", "torch_dtype": "torch.float32", "np_dtype": "<class 'numpy.float32'>", "optimize_memory_usage": false}, "buffer_step_size
…
