…
00e+03, "nondeterministic": false, "max_episode_steps": 1000, "order_enforce": true, "autoreset": false, "disable_env_checker": false, "apply_api_compatibility": false, "kwargs": {"render_mode": null}, "additional_wrappers": [], "vector_entry_point": null, "namespace": null, "name": "HalfCheetah", "version": 4}], "policy": {}, "policy_parameter_count": 217870, "policy_repr": "DebugSACPolicy(\n  (feature_extractor): IdentityExtractor()\n  (actor): Actor(\n    (features_extractor): FlattenExtractor(\n      (flatten): Flatten(start_dim=1, end_dim=-1)\n    )\n    (latent_pi): Sequential(\n      (0): Linear(in_features=17, out_features=256, bias=True)\n      (1): ReLU()\n      (2): Linear(in_features=256, out_features=256, bias=True)\n      (3): ReLU()\n    )\n    (mu): Linear(in_features=256, out_features=6, bias=True)\n    (log_std): Linear(in_features=256, out_features=6, bias=True)\n  )\n  (critic): QCritic(\n    (feature_extractor): IdentityExtractor()\n    (q_networks): ModuleList(\n      (0-1): 2 x Sequential(\n        (0): Linear(in_features=23, out_features=256, bias=True)\n        (1): ReLU()\n        (2): Linear(in_features=256, out_features=256, bias=True)\n        (3): ReLU()\n        (4): Linear(in_features=256, out_features=1, bias=True)\n      )\n    )\n  )\n  (target_critic): QCritic(\n    (feature_extractor): IdentityExtractor()\n    (q_networks): ModuleList(\n      (0-1): 2 x Sequential(\n        (0): Linear(in_features=23, out_features=256, bias=True)\n        (1): ReLU()\n        (2): Linear(in_features=256, out_features=256, bias=True)\n        (3): ReLU()\n        (4): Linear(in_features=256, out_features=1, bias=True)\n      )\n    )\n  )\n  (target_shared_feature_extractor): IdentityExtractor()\n)", "buffer": {"_type": "ReplayBuffer", "_type_fq": "src.reinforcement_learning.core.buffers.replay.replay_buffer.ReplayBuffer", "step_size": 1000000, "num_envs": 1, "total_size": 1000000, "reward_scale": 1.0000e+00, "torch_device": "cuda:0", "torch_dtype": "torch.float32", "
…
