…
        "env": "<RescaleAction<TransformRewardWrapper<AsyncVectorEnv instance>>>",
        "num_envs": 16,
        "policy": {
            "__type": "SACPolicy",
            "parameter_count": 217870,
            "feature_extractor": {
                "__type": "IdentityExtractor",
                "parameter_count": 0
            },
            "actor": {
                "__type": "Actor",
                "parameter_count": 73484,
                "feature_extractor": {
                    "__type": "IdentityExtractor",
                    "parameter_count": 0
                },
                "network": "Sequential(\n  (0): Linear(in_features=17, out_features=256, bias=True)\n  (1): ReLU()\n  (2): Linear(in_features=256, out_features=256, bias=True)\n  (3): ReLU()\n)",
                "action_selector": "PredictedStdActionSelector(\n  (action_net): Linear(in_features=256, out_features=6, bias=True)\n  (log_std_net): Linear(in_features=256, out_features=6, bias=True)\n)"
            },
            "critic": {
                "__type": "QCritic",
                "parameter_count": 144386,
                "feature_extractor": {
                    "__type": "IdentityExtractor",
                    "parameter_count": 0
                },
                "n_critics": 2,
                "q_network": "Sequential(\n  (0): Linear(in_features=23, out_features=256, bias=True)\n  (1): ReLU()\n  (2): Linear(in_features=256, out_features=256, bias=True)\n  (3): ReLU()\n  (4): Linear(in_features=256, out_features=1, bias=True)\n)"
            }
        },
        "policy_parameter_count": 217870,
        "policy_repr": "SACPolicy(\n  (feature_extractor): IdentityExtractor()\n  (actor): Actor(\n    (feature_extractor): IdentityExtractor()\n    (network): Sequential(\n      (0): Linear(in_features=17, out_features=256, bias=True)\n      (1): ReLU()\n      (2): Linear(in_features=256, out_features=256, bias=True)\n      (3): ReLU()\n    )\n    (action_selector): PredictedStdActionSelector(\n      (action_net): Linear(in_features=256, out_features=6, bias=True)\n      (log_std_net): Linear(in_features=256, out_features=6, bias=True)\n    )\n  )\n  (critic): QCritic(\n    (feature_extractor): IdentityExtractor()\n    (q_networks): ModuleList(\n      (0-1): 2 x Sequential(\n        (0): Linear(in_features=23, out_features=256, bias=True)\n        (1): ReLU()\n        (2): Linear(in_features=256, out_features=256, bias=True)\n        (3): ReLU()\n        (4): Linear(in_features=256, out_features=1, bias=True)\n      )\n    )\n  )\n  (target_critic): QCritic(\n    (feature_extractor): IdentityExtractor()\n    (q_networks): ModuleList(\n      (0-1): 2 x Sequential(\n        (0): Linear(in_features=23, out_features=256, bias=True)\n        (1): ReLU()\n        (2): Linear(in_features=256, out_features=256, bias=True)\n        (3): ReLU()\n        (4): Linear(in_features=256, out_features=1, bias=True)\n      )\n    )\n  )\n  (target_shared_feature_extractor): IdentityExtractor()\n)",
        "buffer": {
            "__type": "ReplayBuffer",
            "buffer_size": 50000,
            "num_envs": 16,
            "total_buffer_size": 800000,
            "torch_device": "cuda:0",
            "torch_dtype": "torch.float32",
            "np_dtype": "<class 'numpy.float32'>",
…
